…
I0502 13:04:09.636260  8220 net.cpp:296] The NetState phase (0) differed from the phase (1) specified by a rule in layer mnist
I0502 13:04:09.636299  8220 net.cpp:296] The NetState phase (0) differed from the phase (1) specified by a rule in layer accuracy
I0502 13:04:09.636566  8220 net.cpp:53] Initializing net from parameters: 
name: "LeNet"
state {
  phase: TRAIN
  level: 0
  stage: ""
}
layer {
  name: "mnist"
  type: "Data"
  top: "data"
  top: "label"
  include {
    phase: TRAIN
  }
  transform_param {
    scale: 0.00390625
  }
  data_param {
    source: "examples/mnist/mnist_train_lmdb"
    batch_size: 64
    backend: LMDB
  }
}
layer {
  name: "conv1"
  type: "Convolution"
  bottom: "data"
  top: "conv1"
  param {
    lr_mult: 1
  }
  param {
    lr_mult: 2
  }
  convolution_param {
    num_output: 20
    kernel_size: 5
    stride: 1
    weight_filler {
      type: "xavier"
    }
    bias_filler {
      type: "constant"
    }
  }
}
layer {
  name: "pool1"
  type: "Pooling"
  bottom: "conv1"
  top: "pool1"
  pooling_param {
    pool: MAX
    kernel_size: 2
    stride: 2
  }
}
layer {
  name: "conv2"
  type: "Convolution"
  bottom: "pool1"
  top: "conv2"
  param {
    lr_mult: 1
  }
  param {
    lr_mult: 2
  }
  convolution_param {
    num_output: 50
    kernel_size: 5
    stride: 1
    weight_filler {
      type: "xavier"
    }
    bias_filler {
      type: "constant"
    }
  }
}
layer {
  name: "pool2"
  type: "Pooling"
  bottom: "conv2"
  top: "pool2"
  pooling_param {
    pool: MAX
    kernel_size: 2
    stride: 2
  }
}
layer {
  name: "ip1"
  type: "InnerProduct"
  bottom: "pool2"
  top: "ip1"
  param {
    lr_mult: 1
  }
  param {
    lr_mult: 2
  }
  inner_product_param {
    num_output: 500
    weight_filler {
      type: "xavier"
    }
    bias_filler {
      type: "constant"
    }
  }
}
layer {
  name: "relu1"
  type: "ReLU"
  bottom: "ip1"
  top: "ip1"
}
layer {
  name: "ip2"
  type: "InnerProduct"
  bottom: "ip1"
  top: "ip2"
  param {
    lr_mult: 1
  }
  param {
    lr_mult: 2
  }
  inner_product_param {
    num_output: 10
    weight_filler {
      type: "xavier"
    }
    bias_filler {
      type: "constant"
    }
  }
}
layer {
  name: "loss"
  type: "SoftmaxWithLoss"
  bottom: "ip2"
  bottom: "label"
  top: "loss"
}
I0502 13:04:09.637013  8220 layer_factory.hpp:77] Creating layer mnist
I0502 13:04:09.637938  8220 db_lmdb.cpp:35] Opened lmdb examples/mnist/mnist_train_lmdb
I0502 13:04:09.638536  8220 net.cpp:86] Creating Layer mnist
I0502 13:04:09.638561  8220 net.cpp:382] mnist -> data
I0502 13:04:09.638661  8220 net.cpp:382] mnist -> label
I0502 13:04:09.639637  8220 data_layer.cpp:45] output data size: 64,1,28,28
I0502 13:04:09.641167  8220 base_data_layer.cpp:72] Initializing prefetch
I0502 13:04:09.641333  8220 base_data_layer.cpp:75] Prefetch initialized.
I0502 13:04:09.641343  8220 net.cpp:124] Setting up mnist
I0502 13:04:09.641371  8220 net.cpp:131] Top shape: 64 1 28 28 (50176)
I0502 13:04:09.641381  8220 net.cpp:131] Top shape: 64 (64)
I0502 13:04:09.641384  8220 net.cpp:139] Memory required for data: 200960
I0502 13:04:09.641407  8220 layer_factory.hpp:77] Creating layer conv1
I0502 13:04:09.641458  8220 net.cpp:86] Creating Layer conv1
I0502 13:04:09.641475  8220 net.cpp:408] conv1 <- data
I0502 13:04:09.641517  8220 net.cpp:382] conv1 -> conv1
I0502 13:04:09.642760  8220 net.cpp:124] Setting up conv1
I0502 13:04:09.642781  8220 net.cpp:131] Top shape: 64 20 24 24 (737280)
I0502 13:04:09.642787  8220 net.cpp:139] Memory required for data: 3150080
I0502 13:04:09.642881  8220 layer_factory.hpp:77] Creating layer pool1
I0502 13:04:09.642915  8220 net.cpp:86] Creating Layer pool1
I0502 13:04:09.642925  8220 net.cpp:408] pool1 <- conv1
I0502 13:04:09.642947  8220 net.cpp:382] pool1 -> pool1
I0502 13:04:09.643013  8220 net.cpp:124] Setting up pool1
I0502 13:04:09.643026  8220 net.cpp:131] Top shape: 64 20 12 12 (184320)
I0502 13:04:09.643030  8220 net.cpp:139] Memory required for data: 3887360
I0502 13:04:09.643038  8220 layer_factory.hpp:77] Creating layer conv2
I0502 13:04:09.643061  8220 net.cpp:86] Creating Layer conv2
I0502 13:04:09.643069  8220 net.cpp:408] conv2 <- pool1
I0502 13:04:09.643087  8220 net.cpp:382] conv2 -> conv2
I0502 13:04:09.643594  8228 data_layer.cpp:128] Prefetch batch: 1 ms.
I0502 13:04:09.643616  8228 data_layer.cpp:129]      Read time: 0.115 ms.
I0502 13:04:09.643623  8228 data_layer.cpp:130] Transform time: 0.708 ms.
I0502 13:04:09.644779  8220 net.cpp:124] Setting up conv2
I0502 13:04:09.644815  8220 net.cpp:131] Top shape: 64 50 8 8 (204800)
I0502 13:04:09.644821  8220 net.cpp:139] Memory required for data: 4706560
I0502 13:04:09.644843  8220 layer_factory.hpp:77] Creating layer pool2
I0502 13:04:09.644878  8220 net.cpp:86] Creating Layer pool2
I0502 13:04:09.644887  8220 net.cpp:408] pool2 <- conv2
I0502 13:04:09.644889  8228 data_layer.cpp:128] Prefetch batch: 1 ms.
I0502 13:04:09.644901  8228 data_layer.cpp:129]      Read time: 0.132 ms.
I0502 13:04:09.644903  8220 net.cpp:382] pool2 -> pool2
I0502 13:04:09.644906  8228 data_layer.cpp:130] Transform time: 0.849 ms.
I0502 13:04:09.644963  8220 net.cpp:124] Setting up pool2
I0502 13:04:09.644973  8220 net.cpp:131] Top shape: 64 50 4 4 (51200)
I0502 13:04:09.644979  8220 net.cpp:139] Memory required for data: 4911360
I0502 13:04:09.644999  8220 layer_factory.hpp:77] Creating layer ip1
I0502 13:04:09.645033  8220 net.cpp:86] Creating Layer ip1
I0502 13:04:09.645040  8220 net.cpp:408] ip1 <- pool2
I0502 13:04:09.645071  8220 net.cpp:382] ip1 -> ip1
I0502 13:04:09.645952  8228 data_layer.cpp:128] Prefetch batch: 0 ms.
I0502 13:04:09.645965  8228 data_layer.cpp:129]      Read time: 0.098 ms.
I0502 13:04:09.645970  8228 data_layer.cpp:130] Transform time: 0.702 ms.
I0502 13:04:09.646905  8228 data_layer.cpp:128] Prefetch batch: 0 ms.
I0502 13:04:09.646915  8228 data_layer.cpp:129]      Read time: 0.093 ms.
I0502 13:04:09.646927  8228 data_layer.cpp:130] Transform time: 0.631 ms.
I0502 13:04:09.664501  8220 net.cpp:124] Setting up ip1
I0502 13:04:09.664528  8220 net.cpp:131] Top shape: 64 500 (32000)
I0502 13:04:09.664532  8220 net.cpp:139] Memory required for data: 5039360
I0502 13:04:09.664567  8220 layer_factory.hpp:77] Creating layer relu1
I0502 13:04:09.664597  8220 net.cpp:86] Creating Layer relu1
I0502 13:04:09.664607  8220 net.cpp:408] relu1 <- ip1
I0502 13:04:09.664621  8220 net.cpp:369] relu1 -> ip1 (in-place)
I0502 13:04:09.664638  8220 net.cpp:124] Setting up relu1
I0502 13:04:09.664644  8220 net.cpp:131] Top shape: 64 500 (32000)
I0502 13:04:09.664649  8220 net.cpp:139] Memory required for data: 5167360
I0502 13:04:09.664655  8220 layer_factory.hpp:77] Creating layer ip2
I0502 13:04:09.664672  8220 net.cpp:86] Creating Layer ip2
I0502 13:04:09.664680  8220 net.cpp:408] ip2 <- ip1
I0502 13:04:09.664693  8220 net.cpp:382] ip2 -> ip2
I0502 13:04:09.667207  8220 net.cpp:124] Setting up ip2
I0502 13:04:09.667230  8220 net.cpp:131] Top shape: 64 10 (640)
I0502 13:04:09.667234  8220 net.cpp:139] Memory required for data: 5169920
I0502 13:04:09.667250  8220 layer_factory.hpp:77] Creating layer loss
I0502 13:04:09.667286  8220 net.cpp:86] Creating Layer loss
I0502 13:04:09.667296  8220 net.cpp:408] loss <- ip2
I0502 13:04:09.667311  8220 net.cpp:408] loss <- label
I0502 13:04:09.667325  8220 net.cpp:382] loss -> loss
I0502 13:04:09.667357  8220 layer_factory.hpp:77] Creating layer loss
…
I0502 13:04:09.667806  8220 solver.cpp:190] Creating test net (#0) specified by net file: examples/mnist/lenet_train_test.prototxt
I0502 13:04:09.667853  8220 net.cpp:296] The NetState phase (1) differed from the phase (0) specified by a rule in layer mnist
I0502 13:04:09.667932  8220 net.cpp:53] Initializing net from parameters: 
name: "LeNet"
state {
  phase: TEST
}
layer {
  name: "mnist"
  type: "Data"
  top: "data"
  top: "label"
  include {
    phase: TEST
  }
  transform_param {
    scale: 0.00390625
  }
  data_param {
    source: "examples/mnist/mnist_test_lmdb"
    batch_size: 100
    backend: LMDB
  }
}
layer {
  name: "conv1"
  type: "Convolution"
  bottom: "data"
  top: "conv1"
  param {
    lr_mult: 1
  }
  param {
    lr_mult: 2
  }
  convolution_param {
    num_output: 20
    kernel_size: 5
    stride: 1
    weight_filler {
      type: "xavier"
    }
    bias_filler {
      type: "constant"
    }
  }
}
layer {
  name: "pool1"
  type: "Pooling"
  bottom: "conv1"
  top: "pool1"
  pooling_param {
    pool: MAX
    kernel_size: 2
    stride: 2
  }
}
layer {
  name: "conv2"
  type: "Convolution"
  bottom: "pool1"
  top: "conv2"
  param {
    lr_mult: 1
  }
  param {
    lr_mult: 2
  }
  convolution_param {
    num_output: 50
    kernel_size: 5
    stride: 1
    weight_filler {
      type: "xavier"
    }
    bias_filler {
      type: "constant"
    }
  }
}
layer {
  name: "pool2"
  type: "Pooling"
  bottom: "conv2"
  top: "pool2"
  pooling_param {
    pool: MAX
    kernel_size: 2
    stride: 2
  }
}
layer {
  name: "ip1"
  type: "InnerProduct"
  bottom: "pool2"
  top: "ip1"
  param {
    lr_mult: 1
  }
  param {
    lr_mult: 2
  }
  inner_product_param {
    num_output: 500
    weight_filler {
      type: "xavier"
    }
    bias_filler {
      type: "constant"
    }
  }
}
layer {
  name: "relu1"
  type: "ReLU"
  bottom: "ip1"
  top: "ip1"
}
layer {
  name: "ip2"
  type: "InnerProduct"
  bottom: "ip1"
  top: "ip2"
  param {
    lr_mult: 1
  }
  param {
    lr_mult: 2
  }
  inner_product_param {
    num_output: 10
    weight_filler {
      type: "xavier"
    }
    bias_filler {
      type: "constant"
    }
  }
}
layer {
  name: "accuracy"
  type: "Accuracy"
  bottom: "ip2"
  bottom: "label"
  top: "accuracy"
  include {
    phase: TEST
  }
}
layer {
  name: "loss"
  type: "SoftmaxWithLoss"
  bottom: "ip2"
  bottom: "label"
  top: "loss"
}
I0502 13:04:09.668167  8220 layer_factory.hpp:77] Creating layer mnist
I0502 13:04:09.668792  8220 db_lmdb.cpp:35] Opened lmdb examples/mnist/mnist_test_lmdb
I0502 13:04:09.669636  8220 net.cpp:86] Creating Layer mnist
I0502 13:04:09.669656  8220 net.cpp:382] mnist -> data
I0502 13:04:09.669680  8220 net.cpp:382] mnist -> label
I0502 13:04:09.669788  8220 data_layer.cpp:45] output data size: 100,1,28,28
I0502 13:04:09.671478  8220 base_data_layer.cpp:72] Initializing prefetch
I0502 13:04:09.671535  8220 base_data_layer.cpp:75] Prefetch initialized.
I0502 13:04:09.671545  8220 net.cpp:124] Setting up mnist
I0502 13:04:09.671556  8220 net.cpp:131] Top shape: 100 1 28 28 (78400)
I0502 13:04:09.671561  8220 net.cpp:131] Top shape: 100 (100)
I0502 13:04:09.671566  8220 net.cpp:139] Memory required for data: 314000
I0502 13:04:09.671595  8220 layer_factory.hpp:77] Creating layer label_mnist_1_split
I0502 13:04:09.671625  8220 net.cpp:86] Creating Layer label_mnist_1_split
I0502 13:04:09.671634  8220 net.cpp:408] label_mnist_1_split <- label
I0502 13:04:09.671651  8220 net.cpp:382] label_mnist_1_split -> label_mnist_1_split_0
I0502 13:04:09.671675  8220 net.cpp:382] label_mnist_1_split -> label_mnist_1_split_1
I0502 13:04:09.671725  8220 net.cpp:124] Setting up label_mnist_1_split
I0502 13:04:09.671735  8220 net.cpp:131] Top shape: 100 (100)
I0502 13:04:09.671739  8220 net.cpp:131] Top shape: 100 (100)
I0502 13:04:09.671742  8220 net.cpp:139] Memory required for data: 314800
I0502 13:04:09.671748  8220 layer_factory.hpp:77] Creating layer conv1
I0502 13:04:09.671772  8220 net.cpp:86] Creating Layer conv1
I0502 13:04:09.671782  8220 net.cpp:408] conv1 <- data
I0502 13:04:09.671799  8220 net.cpp:382] conv1 -> conv1
I0502 13:04:09.672192  8220 net.cpp:124] Setting up conv1
I0502 13:04:09.672206  8220 net.cpp:131] Top shape: 100 20 24 24 (1152000)
I0502 13:04:09.672210  8220 net.cpp:139] Memory required for data: 4922800
I0502 13:04:09.672236  8220 layer_factory.hpp:77] Creating layer pool1
I0502 13:04:09.672258  8220 net.cpp:86] Creating Layer pool1
I0502 13:04:09.672266  8220 net.cpp:408] pool1 <- conv1
I0502 13:04:09.672281  8220 net.cpp:382] pool1 -> pool1
I0502 13:04:09.672334  8220 net.cpp:124] Setting up pool1
I0502 13:04:09.672353  8220 net.cpp:131] Top shape: 100 20 12 12 (288000)
I0502 13:04:09.672358  8220 net.cpp:139] Memory required for data: 6074800
I0502 13:04:09.672363  8220 layer_factory.hpp:77] Creating layer conv2
I0502 13:04:09.672387  8220 net.cpp:86] Creating Layer conv2
I0502 13:04:09.672396  8220 net.cpp:408] conv2 <- pool1
I0502 13:04:09.672417  8220 net.cpp:382] conv2 -> conv2
I0502 13:04:09.673597  8229 data_layer.cpp:128] Prefetch batch: 1 ms.
I0502 13:04:09.673612  8229 data_layer.cpp:129]      Read time: 0.175 ms.
I0502 13:04:09.673620  8229 data_layer.cpp:130] Transform time: 1.095 ms.
I0502 13:04:09.673947  8220 net.cpp:124] Setting up conv2
I0502 13:04:09.673965  8220 net.cpp:131] Top shape: 100 50 8 8 (320000)
I0502 13:04:09.673970  8220 net.cpp:139] Memory required for data: 7354800
I0502 13:04:09.673995  8220 layer_factory.hpp:77] Creating layer pool2
I0502 13:04:09.674010  8220 net.cpp:86] Creating Layer pool2
I0502 13:04:09.674019  8220 net.cpp:408] pool2 <- conv2
I0502 13:04:09.674036  8220 net.cpp:382] pool2 -> pool2
I0502 13:04:09.674088  8220 net.cpp:124] Setting up pool2
I0502 13:04:09.674099  8220 net.cpp:131] Top shape: 100 50 4 4 (80000)
I0502 13:04:09.674103  8220 net.cpp:139] Memory required for data: 7674800
I0502 13:04:09.674108  8220 layer_factory.hpp:77] Creating layer ip1
I0502 13:04:09.674125  8220 net.cpp:86] Creating Layer ip1
I0502 13:04:09.674134  8220 net.cpp:408] ip1 <- pool2
I0502 13:04:09.674149  8220 net.cpp:382] ip1 -> ip1
I0502 13:04:09.675191  8229 data_layer.cpp:128] Prefetch batch: 1 ms.
I0502 13:04:09.675204  8229 data_layer.cpp:129]      Read time: 0.163 ms.
I0502 13:04:09.675210  8229 data_layer.cpp:130] Transform time: 1.057 ms.
I0502 13:04:09.676715  8229 data_layer.cpp:128] Prefetch batch: 1 ms.
I0502 13:04:09.676725  8229 data_layer.cpp:129]      Read time: 0.148 ms.
I0502 13:04:09.676731  8229 data_layer.cpp:130] Transform time: 1.008 ms.
I0502 13:04:09.678130  8229 data_layer.cpp:128] Prefetch batch: 1 ms.
I0502 13:04:09.678139  8229 data_layer.cpp:129]      Read time: 0.141 ms.
I0502 13:04:09.678161  8229 data_layer.cpp:130] Transform time: 0.964 ms.
I0502 13:04:09.693029  8220 net.cpp:124] Setting up ip1
I0502 13:04:09.693071  8220 net.cpp:131] Top shape: 100 500 (50000)
I0502 13:04:09.693076  8220 net.cpp:139] Memory required for data: 7874800
I0502 13:04:09.693107  8220 layer_factory.hpp:77] Creating layer relu1
I0502 13:04:09.693157  8220 net.cpp:86] Creating Layer relu1
I0502 13:04:09.693167  8220 net.cpp:408] relu1 <- ip1
I0502 13:04:09.693182  8220 net.cpp:369] relu1 -> ip1 (in-place)
I0502 13:04:09.693198  8220 net.cpp:124] Setting up relu1
I0502 13:04:09.693234  8220 net.cpp:131] Top shape: 100 500 (50000)
I0502 13:04:09.693239  8220 net.cpp:139] Memory required for data: 8074800
I0502 13:04:09.693244  8220 layer_factory.hpp:77] Creating layer ip2
I0502 13:04:09.693289  8220 net.cpp:86] Creating Layer ip2
I0502 13:04:09.693297  8220 net.cpp:408] ip2 <- ip1
I0502 13:04:09.693326  8220 net.cpp:382] ip2 -> ip2
I0502 13:04:09.693661  8220 net.cpp:124] Setting up ip2
I0502 13:04:09.693672  8220 net.cpp:131] Top shape: 100 10 (1000)
I0502 13:04:09.693676  8220 net.cpp:139] Memory required for data: 8078800
I0502 13:04:09.693688  8220 layer_factory.hpp:77] Creating layer ip2_ip2_0_split
I0502 13:04:09.693701  8220 net.cpp:86] Creating Layer ip2_ip2_0_split
I0502 13:04:09.693708  8220 net.cpp:408] ip2_ip2_0_split <- ip2
I0502 13:04:09.693725  8220 net.cpp:382] ip2_ip2_0_split -> ip2_ip2_0_split_0
I0502 13:04:09.693742  8220 net.cpp:382] ip2_ip2_0_split -> ip2_ip2_0_split_1
I0502 13:04:09.693780  8220 net.cpp:124] Setting up ip2_ip2_0_split
I0502 13:04:09.693789  8220 net.cpp:131] Top shape: 100 10 (1000)
I0502 13:04:09.693794  8220 net.cpp:131] Top shape: 100 10 (1000)
I0502 13:04:09.693799  8220 net.cpp:139] Memory required for data: 8086800
I0502 13:04:09.693804  8220 layer_factory.hpp:77] Creating layer accuracy
I0502 13:04:09.693822  8220 net.cpp:86] Creating Layer accuracy
I0502 13:04:09.693830  8220 net.cpp:408] accuracy <- ip2_ip2_0_split_0
I0502 13:04:09.693840  8220 net.cpp:408] accuracy <- label_mnist_1_split_0
I0502 13:04:09.693852  8220 net.cpp:382] accuracy -> accuracy
…
