…
I0429 16:39:17.677109  8967 net.cpp:296] The NetState phase (0) differed from the phase (1) specified by a rule in layer mnist
I0429 16:39:17.677134  8967 net.cpp:296] The NetState phase (0) differed from the phase (1) specified by a rule in layer accuracy
I0429 16:39:17.677206  8967 net.cpp:53] Initializing net from parameters: 
name: "LeNet"
state {
  phase: TRAIN
  level: 0
  stage: ""
}
layer {
  name: "mnist"
  type: "Data"
  top: "data"
  top: "label"
  include {
    phase: TRAIN
  }
  transform_param {
    scale: 0.00390625
  }
  data_param {
    source: "examples/mnist/mnist_train_lmdb"
    batch_size: 64
    backend: LMDB
  }
}
layer {
  name: "conv1"
  type: "Convolution"
  bottom: "data"
  top: "conv1"
  param {
    lr_mult: 1
  }
  param {
    lr_mult: 2
  }
  convolution_param {
    num_output: 20
    kernel_size: 5
    stride: 1
    weight_filler {
      type: "xavier"
    }
    bias_filler {
      type: "constant"
    }
  }
}
layer {
  name: "pool1"
  type: "Pooling"
  bottom: "conv1"
  top: "pool1"
  pooling_param {
    pool: MAX
    kernel_size: 2
    stride: 2
  }
}
layer {
  name: "conv2"
  type: "Convolution"
  bottom: "pool1"
  top: "conv2"
  param {
    lr_mult: 1
  }
  param {
    lr_mult: 2
  }
  convolution_param {
    num_output: 50
    kernel_size: 5
    stride: 1
    weight_filler {
      type: "xavier"
    }
    bias_filler {
      type: "constant"
    }
  }
}
layer {
  name: "pool2"
  type: "Pooling"
  bottom: "conv2"
  top: "pool2"
  pooling_param {
    pool: MAX
    kernel_size: 2
    stride: 2
  }
}
layer {
  name: "ip1"
  type: "InnerProduct"
  bottom: "pool2"
  top: "ip1"
  param {
    lr_mult: 1
  }
  param {
    lr_mult: 2
  }
  inner_product_param {
    num_output: 500
    weight_filler {
      type: "xavier"
    }
    bias_filler {
      type: "constant"
    }
  }
}
layer {
  name: "relu1"
  type: "ReLU"
  bottom: "ip1"
  top: "ip1"
}
layer {
  name: "ip2"
  type: "InnerProduct"
  bottom: "ip1"
  top: "ip2"
  param {
    lr_mult: 1
  }
  param {
    lr_mult: 2
  }
  inner_product_param {
    num_output: 10
    weight_filler {
      type: "xavier"
    }
    bias_filler {
      type: "constant"
    }
  }
}
layer {
  name: "loss"
  type: "SoftmaxWithLoss"
  bottom: "ip2"
  bottom: "label"
  top: "loss"
}
I0429 16:39:17.677628  8967 layer_factory.hpp:77] Creating layer mnist
I0429 16:39:17.677830  8967 db_lmdb.cpp:35] Opened lmdb examples/mnist/mnist_train_lmdb
I0429 16:39:17.677875  8967 net.cpp:86] Creating Layer mnist
I0429 16:39:17.677899  8967 net.cpp:382] mnist -> data
I0429 16:39:17.678001  8967 net.cpp:382] mnist -> label
I0429 16:39:17.679086  8967 data_layer.cpp:45] output data size: 64,1,28,28
I0429 16:39:17.680649  8967 base_data_layer.cpp:72] Initializing prefetch
I0429 16:39:17.680832  8967 base_data_layer.cpp:75] Prefetch initialized.
I0429 16:39:17.680845  8967 net.cpp:124] Setting up mnist
I0429 16:39:17.680873  8967 net.cpp:131] Top shape: 64 1 28 28 (50176)
I0429 16:39:17.680882  8967 net.cpp:131] Top shape: 64 (64)
I0429 16:39:17.680888  8967 net.cpp:139] Memory required for data: 200960
I0429 16:39:17.680912  8967 layer_factory.hpp:77] Creating layer conv1
I0429 16:39:17.680969  8967 net.cpp:86] Creating Layer conv1
I0429 16:39:17.680990  8967 net.cpp:408] conv1 <- data
I0429 16:39:17.681036  8967 net.cpp:382] conv1 -> conv1
I0429 16:39:17.682412  8967 net.cpp:124] Setting up conv1
I0429 16:39:17.682443  8967 net.cpp:131] Top shape: 64 20 24 24 (737280)
I0429 16:39:17.682449  8967 net.cpp:139] Memory required for data: 3150080
I0429 16:39:17.682538  8967 layer_factory.hpp:77] Creating layer pool1
I0429 16:39:17.682571  8967 net.cpp:86] Creating Layer pool1
I0429 16:39:17.682584  8967 net.cpp:408] pool1 <- conv1
I0429 16:39:17.682612  8967 net.cpp:382] pool1 -> pool1
I0429 16:39:17.682690  8967 net.cpp:124] Setting up pool1
I0429 16:39:17.682710  8967 net.cpp:131] Top shape: 64 20 12 12 (184320)
I0429 16:39:17.682716  8967 net.cpp:139] Memory required for data: 3887360
I0429 16:39:17.682726  8967 layer_factory.hpp:77] Creating layer conv2
I0429 16:39:17.682756  8967 net.cpp:86] Creating Layer conv2
I0429 16:39:17.682766  8967 net.cpp:408] conv2 <- pool1
I0429 16:39:17.682785  8967 net.cpp:382] conv2 -> conv2
I0429 16:39:17.683457  8973 data_layer.cpp:128] Prefetch batch: 1 ms.
I0429 16:39:17.683482  8973 data_layer.cpp:129]      Read time: 0.134 ms.
I0429 16:39:17.683492  8973 data_layer.cpp:130] Transform time: 0.877 ms.
I0429 16:39:17.684343  8967 net.cpp:124] Setting up conv2
I0429 16:39:17.684358  8967 net.cpp:131] Top shape: 64 50 8 8 (204800)
I0429 16:39:17.684365  8967 net.cpp:139] Memory required for data: 4706560
I0429 16:39:17.684388  8967 layer_factory.hpp:77] Creating layer pool2
I0429 16:39:17.684410  8967 net.cpp:86] Creating Layer pool2
I0429 16:39:17.684422  8967 net.cpp:408] pool2 <- conv2
I0429 16:39:17.684442  8967 net.cpp:382] pool2 -> pool2
I0429 16:39:17.684501  8967 net.cpp:124] Setting up pool2
I0429 16:39:17.684514  8967 net.cpp:131] Top shape: 64 50 4 4 (51200)
I0429 16:39:17.684518  8967 net.cpp:139] Memory required for data: 4911360
I0429 16:39:17.684525  8967 layer_factory.hpp:77] Creating layer ip1
I0429 16:39:17.684548  8967 net.cpp:86] Creating Layer ip1
I0429 16:39:17.684557  8967 net.cpp:408] ip1 <- pool2
I0429 16:39:17.684577  8967 net.cpp:382] ip1 -> ip1
I0429 16:39:17.684674  8973 data_layer.cpp:128] Prefetch batch: 1 ms.
I0429 16:39:17.684684  8973 data_layer.cpp:129]      Read time: 0.126 ms.
I0429 16:39:17.684692  8973 data_layer.cpp:130] Transform time: 0.797 ms.
I0429 16:39:17.686611  8973 data_layer.cpp:128] Prefetch batch: 1 ms.
I0429 16:39:17.686626  8973 data_layer.cpp:129]      Read time: 0.108 ms.
I0429 16:39:17.686635  8973 data_layer.cpp:130] Transform time: 0.74 ms.
I0429 16:39:17.687714  8973 data_layer.cpp:128] Prefetch batch: 1 ms.
I0429 16:39:17.687727  8973 data_layer.cpp:129]      Read time: 0.108 ms.
I0429 16:39:17.687736  8973 data_layer.cpp:130] Transform time: 0.746 ms.
I0429 16:39:17.706118  8967 net.cpp:124] Setting up ip1
I0429 16:39:17.706151  8967 net.cpp:131] Top shape: 64 500 (32000)
I0429 16:39:17.706156  8967 net.cpp:139] Memory required for data: 5039360
I0429 16:39:17.706198  8967 layer_factory.hpp:77] Creating layer relu1
I0429 16:39:17.706230  8967 net.cpp:86] Creating Layer relu1
I0429 16:39:17.706246  8967 net.cpp:408] relu1 <- ip1
I0429 16:39:17.706272  8967 net.cpp:369] relu1 -> ip1 (in-place)
I0429 16:39:17.706297  8967 net.cpp:124] Setting up relu1
I0429 16:39:17.706307  8967 net.cpp:131] Top shape: 64 500 (32000)
I0429 16:39:17.706315  8967 net.cpp:139] Memory required for data: 5167360
I0429 16:39:17.706323  8967 layer_factory.hpp:77] Creating layer ip2
I0429 16:39:17.706343  8967 net.cpp:86] Creating Layer ip2
I0429 16:39:17.706353  8967 net.cpp:408] ip2 <- ip1
I0429 16:39:17.706383  8967 net.cpp:382] ip2 -> ip2
I0429 16:39:17.708529  8967 net.cpp:124] Setting up ip2
I0429 16:39:17.708554  8967 net.cpp:131] Top shape: 64 10 (640)
I0429 16:39:17.708561  8967 net.cpp:139] Memory required for data: 5169920
I0429 16:39:17.708585  8967 layer_factory.hpp:77] Creating layer loss
I0429 16:39:17.708619  8967 net.cpp:86] Creating Layer loss
I0429 16:39:17.708631  8967 net.cpp:408] loss <- ip2
I0429 16:39:17.708649  8967 net.cpp:408] loss <- label
I0429 16:39:17.708672  8967 net.cpp:382] loss -> loss
I0429 16:39:17.708709  8967 layer_factory.hpp:77] Creating layer loss
…
I0429 16:39:17.709236  8967 solver.cpp:190] Creating test net (#0) specified by net file: examples/mnist/lenet_train_test.prototxt
I0429 16:39:17.709290  8967 net.cpp:296] The NetState phase (1) differed from the phase (0) specified by a rule in layer mnist
I0429 16:39:17.709381  8967 net.cpp:53] Initializing net from parameters: 
name: "LeNet"
state {
  phase: TEST
}
layer {
  name: "mnist"
  type: "Data"
  top: "data"
  top: "label"
  include {
    phase: TEST
  }
  transform_param {
    scale: 0.00390625
  }
  data_param {
    source: "examples/mnist/mnist_test_lmdb"
    batch_size: 100
    backend: LMDB
  }
}
layer {
  name: "conv1"
  type: "Convolution"
  bottom: "data"
  top: "conv1"
  param {
    lr_mult: 1
  }
  param {
    lr_mult: 2
  }
  convolution_param {
    num_output: 20
    kernel_size: 5
    stride: 1
    weight_filler {
      type: "xavier"
    }
    bias_filler {
      type: "constant"
    }
  }
}
layer {
  name: "pool1"
  type: "Pooling"
  bottom: "conv1"
  top: "pool1"
  pooling_param {
    pool: MAX
    kernel_size: 2
    stride: 2
  }
}
layer {
  name: "conv2"
  type: "Convolution"
  bottom: "pool1"
  top: "conv2"
  param {
    lr_mult: 1
  }
  param {
    lr_mult: 2
  }
  convolution_param {
    num_output: 50
    kernel_size: 5
    stride: 1
    weight_filler {
      type: "xavier"
    }
    bias_filler {
      type: "constant"
    }
  }
}
layer {
  name: "pool2"
  type: "Pooling"
  bottom: "conv2"
  top: "pool2"
  pooling_param {
    pool: MAX
    kernel_size: 2
    stride: 2
  }
}
layer {
  name: "ip1"
  type: "InnerProduct"
  bottom: "pool2"
  top: "ip1"
  param {
    lr_mult: 1
  }
  param {
    lr_mult: 2
  }
  inner_product_param {
    num_output: 500
    weight_filler {
      type: "xavier"
    }
    bias_filler {
      type: "constant"
    }
  }
}
layer {
  name: "relu1"
  type: "ReLU"
  bottom: "ip1"
  top: "ip1"
}
layer {
  name: "ip2"
  type: "InnerProduct"
  bottom: "ip1"
  top: "ip2"
  param {
    lr_mult: 1
  }
  param {
    lr_mult: 2
  }
  inner_product_param {
    num_output: 10
    weight_filler {
      type: "xavier"
    }
    bias_filler {
      type: "constant"
    }
  }
}
layer {
  name: "accuracy"
  type: "Accuracy"
  bottom: "ip2"
  bottom: "label"
  top: "accuracy"
  include {
    phase: TEST
  }
}
layer {
  name: "loss"
  type: "SoftmaxWithLoss"
  bottom: "ip2"
  bottom: "label"
  top: "loss"
}
I0429 16:39:17.709676  8967 layer_factory.hpp:77] Creating layer mnist
I0429 16:39:17.709760  8967 db_lmdb.cpp:35] Opened lmdb examples/mnist/mnist_test_lmdb
I0429 16:39:17.709781  8967 net.cpp:86] Creating Layer mnist
I0429 16:39:17.709796  8967 net.cpp:382] mnist -> data
I0429 16:39:17.709825  8967 net.cpp:382] mnist -> label
I0429 16:39:17.709941  8967 data_layer.cpp:45] output data size: 100,1,28,28
I0429 16:39:17.711784  8967 base_data_layer.cpp:72] Initializing prefetch
I0429 16:39:17.711865  8967 base_data_layer.cpp:75] Prefetch initialized.
I0429 16:39:17.711874  8967 net.cpp:124] Setting up mnist
I0429 16:39:17.711890  8967 net.cpp:131] Top shape: 100 1 28 28 (78400)
I0429 16:39:17.711897  8967 net.cpp:131] Top shape: 100 (100)
I0429 16:39:17.711900  8967 net.cpp:139] Memory required for data: 314000
I0429 16:39:17.711935  8967 layer_factory.hpp:77] Creating layer label_mnist_1_split
I0429 16:39:17.711968  8967 net.cpp:86] Creating Layer label_mnist_1_split
I0429 16:39:17.711980  8967 net.cpp:408] label_mnist_1_split <- label
I0429 16:39:17.712021  8967 net.cpp:382] label_mnist_1_split -> label_mnist_1_split_0
I0429 16:39:17.712049  8967 net.cpp:382] label_mnist_1_split -> label_mnist_1_split_1
I0429 16:39:17.712108  8967 net.cpp:124] Setting up label_mnist_1_split
I0429 16:39:17.712119  8967 net.cpp:131] Top shape: 100 (100)
I0429 16:39:17.712126  8967 net.cpp:131] Top shape: 100 (100)
I0429 16:39:17.712131  8967 net.cpp:139] Memory required for data: 314800
I0429 16:39:17.712138  8967 layer_factory.hpp:77] Creating layer conv1
I0429 16:39:17.712167  8967 net.cpp:86] Creating Layer conv1
I0429 16:39:17.712177  8967 net.cpp:408] conv1 <- data
I0429 16:39:17.712198  8967 net.cpp:382] conv1 -> conv1
I0429 16:39:17.712522  8967 net.cpp:124] Setting up conv1
I0429 16:39:17.712535  8967 net.cpp:131] Top shape: 100 20 24 24 (1152000)
I0429 16:39:17.712540  8967 net.cpp:139] Memory required for data: 4922800
I0429 16:39:17.712581  8967 layer_factory.hpp:77] Creating layer pool1
I0429 16:39:17.712600  8967 net.cpp:86] Creating Layer pool1
I0429 16:39:17.712610  8967 net.cpp:408] pool1 <- conv1
I0429 16:39:17.712628  8967 net.cpp:382] pool1 -> pool1
I0429 16:39:17.712699  8967 net.cpp:124] Setting up pool1
I0429 16:39:17.712713  8967 net.cpp:131] Top shape: 100 20 12 12 (288000)
I0429 16:39:17.712719  8967 net.cpp:139] Memory required for data: 6074800
I0429 16:39:17.712726  8967 layer_factory.hpp:77] Creating layer conv2
I0429 16:39:17.712751  8967 net.cpp:86] Creating Layer conv2
I0429 16:39:17.712761  8967 net.cpp:408] conv2 <- pool1
I0429 16:39:17.712782  8967 net.cpp:382] conv2 -> conv2
I0429 16:39:17.714170  8974 data_layer.cpp:128] Prefetch batch: 1 ms.
I0429 16:39:17.714188  8974 data_layer.cpp:129]      Read time: 0.167 ms.
I0429 16:39:17.714195  8974 data_layer.cpp:130] Transform time: 1.192 ms.
I0429 16:39:17.714356  8967 net.cpp:124] Setting up conv2
I0429 16:39:17.714380  8967 net.cpp:131] Top shape: 100 50 8 8 (320000)
I0429 16:39:17.714385  8967 net.cpp:139] Memory required for data: 7354800
I0429 16:39:17.714411  8967 layer_factory.hpp:77] Creating layer pool2
I0429 16:39:17.714432  8967 net.cpp:86] Creating Layer pool2
I0429 16:39:17.714442  8967 net.cpp:408] pool2 <- conv2
I0429 16:39:17.714459  8967 net.cpp:382] pool2 -> pool2
I0429 16:39:17.714519  8967 net.cpp:124] Setting up pool2
I0429 16:39:17.714534  8967 net.cpp:131] Top shape: 100 50 4 4 (80000)
I0429 16:39:17.714538  8967 net.cpp:139] Memory required for data: 7674800
I0429 16:39:17.714546  8967 layer_factory.hpp:77] Creating layer ip1
I0429 16:39:17.714565  8967 net.cpp:86] Creating Layer ip1
I0429 16:39:17.714572  8967 net.cpp:408] ip1 <- pool2
I0429 16:39:17.714591  8967 net.cpp:382] ip1 -> ip1
I0429 16:39:17.715955  8974 data_layer.cpp:128] Prefetch batch: 1 ms.
I0429 16:39:17.715975  8974 data_layer.cpp:129]      Read time: 0.176 ms.
I0429 16:39:17.715981  8974 data_layer.cpp:130] Transform time: 1.185 ms.
I0429 16:39:17.717615  8974 data_layer.cpp:128] Prefetch batch: 1 ms.
I0429 16:39:17.717629  8974 data_layer.cpp:129]      Read time: 0.157 ms.
I0429 16:39:17.717634  8974 data_layer.cpp:130] Transform time: 1.131 ms.
I0429 16:39:17.719290  8974 data_layer.cpp:128] Prefetch batch: 1 ms.
I0429 16:39:17.719302  8974 data_layer.cpp:129]      Read time: 0.168 ms.
I0429 16:39:17.719310  8974 data_layer.cpp:130] Transform time: 1.15 ms.
I0429 16:39:17.735896  8967 net.cpp:124] Setting up ip1
I0429 16:39:17.735927  8967 net.cpp:131] Top shape: 100 500 (50000)
I0429 16:39:17.735934  8967 net.cpp:139] Memory required for data: 7874800
I0429 16:39:17.735973  8967 layer_factory.hpp:77] Creating layer relu1
I0429 16:39:17.735997  8967 net.cpp:86] Creating Layer relu1
I0429 16:39:17.736009  8967 net.cpp:408] relu1 <- ip1
I0429 16:39:17.736029  8967 net.cpp:369] relu1 -> ip1 (in-place)
I0429 16:39:17.736048  8967 net.cpp:124] Setting up relu1
I0429 16:39:17.736070  8967 net.cpp:131] Top shape: 100 500 (50000)
I0429 16:39:17.736075  8967 net.cpp:139] Memory required for data: 8074800
I0429 16:39:17.736083  8967 layer_factory.hpp:77] Creating layer ip2
I0429 16:39:17.736106  8967 net.cpp:86] Creating Layer ip2
I0429 16:39:17.736114  8967 net.cpp:408] ip2 <- ip1
I0429 16:39:17.736132  8967 net.cpp:382] ip2 -> ip2
I0429 16:39:17.736577  8967 net.cpp:124] Setting up ip2
I0429 16:39:17.736598  8967 net.cpp:131] Top shape: 100 10 (1000)
I0429 16:39:17.736605  8967 net.cpp:139] Memory required for data: 8078800
I0429 16:39:17.736622  8967 layer_factory.hpp:77] Creating layer ip2_ip2_0_split
I0429 16:39:17.736639  8967 net.cpp:86] Creating Layer ip2_ip2_0_split
I0429 16:39:17.736652  8967 net.cpp:408] ip2_ip2_0_split <- ip2
I0429 16:39:17.736673  8967 net.cpp:382] ip2_ip2_0_split -> ip2_ip2_0_split_0
I0429 16:39:17.736693  8967 net.cpp:382] ip2_ip2_0_split -> ip2_ip2_0_split_1
I0429 16:39:17.736757  8967 net.cpp:124] Setting up ip2_ip2_0_split
I0429 16:39:17.736769  8967 net.cpp:131] Top shape: 100 10 (1000)
I0429 16:39:17.736775  8967 net.cpp:131] Top shape: 100 10 (1000)
I0429 16:39:17.736779  8967 net.cpp:139] Memory required for data: 8086800
I0429 16:39:17.736788  8967 layer_factory.hpp:77] Creating layer accuracy
I0429 16:39:17.736807  8967 net.cpp:86] Creating Layer accuracy
I0429 16:39:17.736816  8967 net.cpp:408] accuracy <- ip2_ip2_0_split_0
I0429 16:39:17.736830  8967 net.cpp:408] accuracy <- label_mnist_1_split_0
I0429 16:39:17.736845  8967 net.cpp:382] accuracy -> accuracy
…
